Model: "sequential_1"
_________________________________________________________________
Layer (type)                 Output Shape              Param #   
=================================================================
conv1d_4 (Conv1D)            (None, 50, 128)           2048      
_________________________________________________________________
conv1d_5 (Conv1D)            (None, 50, 64)            24640     
_________________________________________________________________
dropout_2 (Dropout)          (None, 50, 64)            0         
_________________________________________________________________
max_pooling1d_2 (MaxPooling1 (None, 25, 64)            0         
_________________________________________________________________
conv1d_6 (Conv1D)            (None, 25, 32)            6176      
_________________________________________________________________
conv1d_7 (Conv1D)            (None, 25, 32)            3104      
_________________________________________________________________
dropout_3 (Dropout)          (None, 25, 32)            0         
_________________________________________________________________
max_pooling1d_3 (MaxPooling1 (None, 12, 32)            0         
_________________________________________________________________
flatten_1 (Flatten)          (None, 384)               0         
_________________________________________________________________
dense_3 (Dense)              (None, 16)                6160      
_________________________________________________________________
dense_4 (Dense)              (None, 16)                272       
_________________________________________________________________
dense_5 (Dense)              (None, 1)                 17        
=================================================================
Total params: 42,417
Trainable params: 42,417
Non-trainable params: 0
_________________________________________________________________

Epoch 1/20
1/1 [==============================] - ETA: 0s - loss: 0.9333
Epoch 00001: val_loss improved from inf to 0.74107, saving model to Models/cnn
1/1 [==============================] - 2s 2s/step - loss: 0.9333 - val_loss: 0.7411
…
